…
/localhome/kzahirni/anaconda3/envs/graphVAE-GPU2/lib/python3.7/site-packages/numpy/core/_asarray.py:136: VisibleDeprecationWarning: Creating an ndarray from ragged nested sequences (which is a list-or-tuple of lists-or-tuples-or ndarrays with different lengths or shapes) is deprecated. If you meant to do this, you must specify 'dtype=object' when creating the ndarray
  return array(a, dtype, copy=False, order=order, subok=True)
printing the test set...
/local-scratch/kiarash/Nips2022/GraphVAE-MM/data.py:427: UserWarning: Graph structureal feature is an empty Set
  warnings.warn("Graph structureal feature is an empty Set")
/local-scratch/kiarash/Nips2022/GraphVAE-MM/data.py:432: UserWarning: Label is an empty Set
  warnings.warn("Label is an empty Set")
kernelGVAE(
  (kernel): kernel()
  (decode): GraphTransformerDecoder_FC(
    (normLayers): ModuleList(
      (0): LayerNorm((1024,), eps=1e-05, elementwise_affine=False)
      (1): LayerNorm((1024,), eps=1e-05, elementwise_affine=False)
      (2): LayerNorm((1024,), eps=1e-05, elementwise_affine=False)
    )
    (layers): ModuleList(
      (0): Linear(in_features=1024, out_features=1024, bias=True)
      (1): Linear(in_features=1024, out_features=1024, bias=True)
      (2): Linear(in_features=1024, out_features=1024, bias=True)
      (3): Linear(in_features=1024, out_features=11881, bias=True)
    )
  )
  (encode): AveEncoder(
    (normLayers): ModuleList(
      (0): LayerNorm((256,), eps=1e-05, elementwise_affine=False)
      (1): LayerNorm((1024,), eps=1e-05, elementwise_affine=False)
      (2): LayerNorm((1024,), eps=1e-05, elementwise_affine=False)
    )
    (GCNlayers): ModuleList(
      (0): GraphConv(in=110, out=256, normalization=both, activation=None)
      (1): GraphConv(in=256, out=1024, normalization=both, activation=None)
    )
    (poolingLayer): AvePool()
    (stochastic_mean_layer): node_mlp(
      (layers): ModuleList(
        (0): Linear(in_features=1024, out_features=1024, bias=True)
      )
      (dropout): Dropout(p=0, inplace=False)
    )
    (stochastic_log_std_layer): node_mlp(
      (layers): ModuleList(
        (0): Linear(in_features=1024, out_features=1024, bias=True)
      )
      (dropout): Dropout(p=0, inplace=False)
    )
  )
  (stochastic_mean_layer): node_mlp(
    (layers): ModuleList(
      (0): Linear(in_features=1024, out_features=1024, bias=True)
    )
    (dropout): Dropout(p=0, inplace=False)
  )
  (stochastic_log_std_layer): node_mlp(
    (layers): ModuleList(
      (0): Linear(in_features=1024, out_features=1024, bias=True)
    )
    (dropout): Dropout(p=0, inplace=False)
  )
)
Epoch: 001 |Batch: 000 | loss: 3.516092 | reconstruction_loss: 2.891539 | z_kl_loss: 0.624553 | accu: 0.498957 Binary_Cross_Entropy:2.891538619995117.   KL-D:0.6245532631874084.   
Epoch: 002 |Batch: 000 | loss: 2.964289 | reconstruction_loss: 2.711930 | z_kl_loss: 0.252359 | accu: 0.518501 Binary_Cross_Entropy:2.711930274963379.   KL-D:0.2523587644100189.   
…
