…
degree 0.0003524978795834688 clustering 0.0 sparsity 1.117901549108069e-09 orbits 1.5964310567939677e-05 Spec: 0.00531879215496911 Tri 0.0  diameter: 0.010867144866773648
#------------------------------------------------------
/local-scratch/kiarash/Nips2022/GraphVAE-MM/data.py:427: UserWarning: Graph structureal feature is an empty Set
  warnings.warn("Graph structureal feature is an empty Set")
/local-scratch/kiarash/Nips2022/GraphVAE-MM/data.py:432: UserWarning: Label is an empty Set
  warnings.warn("Label is an empty Set")
kernelGVAE(
  (kernel): kernel()
  (decode): GraphTransformerDecoder_FC(
    (normLayers): ModuleList(
      (0): LayerNorm((1024,), eps=1e-05, elementwise_affine=False)
      (1): LayerNorm((1024,), eps=1e-05, elementwise_affine=False)
      (2): LayerNorm((1024,), eps=1e-05, elementwise_affine=False)
    )
    (layers): ModuleList(
      (0): Linear(in_features=1024, out_features=1024, bias=True)
      (1): Linear(in_features=1024, out_features=1024, bias=True)
      (2): Linear(in_features=1024, out_features=1024, bias=True)
      (3): Linear(in_features=1024, out_features=784, bias=True)
    )
  )
  (encode): AveEncoder(
    (normLayers): ModuleList(
      (0): LayerNorm((256,), eps=1e-05, elementwise_affine=False)
      (1): LayerNorm((1024,), eps=1e-05, elementwise_affine=False)
      (2): LayerNorm((1024,), eps=1e-05, elementwise_affine=False)
    )
    (GCNlayers): ModuleList(
      (0): GraphConv(in=29, out=256, normalization=both, activation=None)
      (1): GraphConv(in=256, out=1024, normalization=both, activation=None)
    )
    (poolingLayer): AvePool()
    (stochastic_mean_layer): node_mlp(
      (layers): ModuleList(
        (0): Linear(in_features=1024, out_features=1024, bias=True)
      )
      (dropout): Dropout(p=0, inplace=False)
    )
    (stochastic_log_std_layer): node_mlp(
      (layers): ModuleList(
        (0): Linear(in_features=1024, out_features=1024, bias=True)
      )
      (dropout): Dropout(p=0, inplace=False)
    )
  )
  (stochastic_mean_layer): node_mlp(
    (layers): ModuleList(
      (0): Linear(in_features=1024, out_features=1024, bias=True)
    )
    (dropout): Dropout(p=0, inplace=False)
  )
  (stochastic_log_std_layer): node_mlp(
    (layers): ModuleList(
      (0): Linear(in_features=1024, out_features=1024, bias=True)
    )
    (dropout): Dropout(p=0, inplace=False)
  )
)
Epoch: 001 |Batch: 000 | loss: 3.276284 | reconstruction_loss: 2.688670 | z_kl_loss: 0.587615 | accu: 0.496998 Binary_Cross_Entropy:2.6886696815490723.   KL-D:0.5876145362854004.   
Epoch: 002 |Batch: 000 | loss: 2.683970 | reconstruction_loss: 2.418181 | z_kl_loss: 0.265789 | accu: 0.538172 Binary_Cross_Entropy:2.4181807041168213.   KL-D:0.2657890021800995.   
…
