…
a=None, bfsOrdering=True, dataset='triangular_grid', decoder='FC', device='cuda:0', directed=False, encoder_type='AvePool', epoch_number=20000, graphEmDim=1024, graph_save_path=None, lr=0.0003, model='kipf', negative_sampling_rate=1, num_of_comunities=256, redraw=False, save_embeddings_to_file=False, split_the_data_to_train_test=True, task='graphGeneration', use_feature=True)
INFO:root:kernl_type:[]
INFO:root:alpha: [1, 1] num_step:0
INFO:root:the selected device is :cuda:0
INFO:root:kernelGVAE(
  (kernel): kernel()
  (decode): GraphTransformerDecoder_FC(
    (normLayers): ModuleList(
      (0): LayerNorm((1024,), eps=1e-05, elementwise_affine=False)
      (1): LayerNorm((1024,), eps=1e-05, elementwise_affine=False)
      (2): LayerNorm((1024,), eps=1e-05, elementwise_affine=False)
    )
    (layers): ModuleList(
      (0): Linear(in_features=1024, out_features=1024, bias=True)
      (1): Linear(in_features=1024, out_features=1024, bias=True)
      (2): Linear(in_features=1024, out_features=1024, bias=True)
      (3): Linear(in_features=1024, out_features=18145, bias=True)
    )
  )
  (encode): AveEncoder(
    (normLayers): ModuleList(
      (0): LayerNorm((256,), eps=1e-05, elementwise_affine=False)
      (1): LayerNorm((1024,), eps=1e-05, elementwise_affine=False)
      (2): LayerNorm((1024,), eps=1e-05, elementwise_affine=False)
    )
    (GCNlayers): ModuleList(
      (0): GraphConv(in=191, out=256, normalization=both, activation=None)
      (1): GraphConv(in=256, out=1024, normalization=both, activation=None)
    )
    (poolingLayer): AvePool()
    (stochastic_mean_layer): node_mlp(
      (layers): ModuleList(
        (0): Linear(in_features=1024, out_features=1024, bias=True)
      )
      (dropout): Dropout(p=0, inplace=False)
    )
    (stochastic_log_std_layer): node_mlp(
      (layers): ModuleList(
        (0): Linear(in_features=1024, out_features=1024, bias=True)
      )
      (dropout): Dropout(p=0, inplace=False)
    )
  )
  (stochastic_mean_layer): node_mlp(
    (layers): ModuleList(
      (0): Linear(in_features=1024, out_features=1024, bias=True)
    )
    (dropout): Dropout(p=0, inplace=False)
  )
  (stochastic_log_std_layer): node_mlp(
    (layers): ModuleList(
      (0): Linear(in_features=1024, out_features=1024, bias=True)
    )
    (dropout): Dropout(p=0, inplace=False)
  )
)
INFO:root:Epoch: 001 |Batch: 000 | loss: 3.540589 | reconstruction_loss: 2.863765 | z_kl_loss: 0.676824 | accu: 0.500351 Binary_Cross_Entropy:2.863764762878418.   KL-D:0.6768240332603455.
INFO:root:Epoch: 002 |Batch: 000 | loss: 3.054158 | reconstruction_loss: 2.782156 | z_kl_loss: 0.272002 | accu: 0.513713 Binary_Cross_Entropy:2.782156467437744.   KL-D:0.2720019519329071.
…
