…
beta=None, bfsOrdering=True, dataset='PTC', decoder='FC', device='cuda:0', directed=True, encoder_type='AvePool', epoch_number=20000, graphEmDim=1024, graph_save_path=None, lr=0.0003, model='kipf', plot_testGraphs=True, redraw=False, task='graphGeneration', use_feature=True)
INFO:root:kernl_type:[]
INFO:root:alpha: [1, 1] num_step:0
INFO:root:the selected device is :cuda:0
WARNING:root:The OGB package is out of date. Your version is 1.3.1, while the latest version is 1.3.3.
INFO:root:kernelGVAE(
  (kernel): kernel()
  (decode): GraphTransformerDecoder_FC(
    (normLayers): ModuleList(
      (0): LayerNorm((1024,), eps=1e-05, elementwise_affine=False)
      (1): LayerNorm((1024,), eps=1e-05, elementwise_affine=False)
      (2): LayerNorm((1024,), eps=1e-05, elementwise_affine=False)
    )
    (layers): ModuleList(
      (0): Linear(in_features=1024, out_features=1024, bias=True)
      (1): Linear(in_features=1024, out_features=1024, bias=True)
      (2): Linear(in_features=1024, out_features=1024, bias=True)
      (3): Linear(in_features=1024, out_features=11881, bias=True)
    )
  )
  (encode): AveEncoder(
    (normLayers): ModuleList(
      (0): LayerNorm((256,), eps=1e-05, elementwise_affine=False)
      (1): LayerNorm((1024,), eps=1e-05, elementwise_affine=False)
      (2): LayerNorm((1024,), eps=1e-05, elementwise_affine=False)
    )
    (GCNlayers): ModuleList(
      (0): GraphConv(in=110, out=256, normalization=both, activation=None)
      (1): GraphConv(in=256, out=1024, normalization=both, activation=None)
    )
    (poolingLayer): AvePool()
    (stochastic_mean_layer): node_mlp(
      (layers): ModuleList(
        (0): Linear(in_features=1024, out_features=1024, bias=True)
      )
      (dropout): Dropout(p=0, inplace=False)
    )
    (stochastic_log_std_layer): node_mlp(
      (layers): ModuleList(
        (0): Linear(in_features=1024, out_features=1024, bias=True)
      )
      (dropout): Dropout(p=0, inplace=False)
    )
  )
  (stochastic_mean_layer): node_mlp(
    (layers): ModuleList(
      (0): Linear(in_features=1024, out_features=1024, bias=True)
    )
    (dropout): Dropout(p=0, inplace=False)
  )
  (stochastic_log_std_layer): node_mlp(
    (layers): ModuleList(
      (0): Linear(in_features=1024, out_features=1024, bias=True)
    )
    (dropout): Dropout(p=0, inplace=False)
  )
)
INFO:root:Epoch: 001 |Batch: 000 | loss: 3.516092 | reconstruction_loss: 2.891539 | z_kl_loss: 0.624553 | accu: 0.498957 Binary_Cross_Entropy:2.891538619995117.   KL-D:0.6245532631874084.   
INFO:root:Epoch: 002 |Batch: 000 | loss: 2.964289 | reconstruction_loss: 2.711930 | z_kl_loss: 0.252359 | accu: 0.518501 Binary_Cross_Entropy:2.711930274963379.   KL-D:0.2523587644100189.   
…
